Model Log 03-29_20-41-56
Learning rate 3e-6
At 770000 works pretty well

Layer (type)                     Output Shape          Param #     Connected to                     
====================================================================================================
main_input (InputLayer)          (None, 80, 80, 4)     0                                            
____________________________________________________________________________________________________
conv2d_1 (Conv2D)                (None, 20, 20, 32)    8224                                         
____________________________________________________________________________________________________
conv2d_2 (Conv2D)                (None, 10, 10, 64)    32832                                        
____________________________________________________________________________________________________
conv2d_3 (Conv2D)                (None, 10, 10, 64)    36928                                        
____________________________________________________________________________________________________
flatten_1 (Flatten)              (None, 6400)          0                                            
____________________________________________________________________________________________________
PostCNN_FC (Dense)               (None, 512)           3277312                                      
____________________________________________________________________________________________________
L_FC (Dense)                     (None, 256)           131328                                       
____________________________________________________________________________________________________
R_FC (Dense)                     (None, 256)           131328                                       
____________________________________________________________________________________________________
L_output (Dense)                 (None, 3)             771                                          
____________________________________________________________________________________________________
R_output (Dense)                 (None, 3)             771                                          
====================================================================================================
Total params: 3,619,494.0
Trainable params: 3,619,494.0
Non-trainable params: 0.0

TIME     3663 | MAX_SCORE   1
TIME     3689 | MAX_SCORE   2
TIME     8622 | MAX_SCORE   3
TIME    11256 | MAX_SCORE   4
TIME    11428 | MAX_SCORE   5
TIME    17912 | MAX_SCORE   6
…
