Model Log 03-30_14-15-35
lr = 4e-6  Got to 27 really really fast!
Layer (type)                     Output Shape          Param #     Connected to                     
====================================================================================================
main_input (InputLayer)          (None, 80, 80, 4)     0                                            
____________________________________________________________________________________________________
conv2d_1 (Conv2D)                (None, 20, 20, 32)    8224                                         
____________________________________________________________________________________________________
conv2d_2 (Conv2D)                (None, 10, 10, 64)    32832                                        
____________________________________________________________________________________________________
conv2d_3 (Conv2D)                (None, 10, 10, 64)    36928                                        
____________________________________________________________________________________________________
flatten_1 (Flatten)              (None, 6400)          0                                            
____________________________________________________________________________________________________
PostCNN_FC (Dense)               (None, 512)           3277312                                      
____________________________________________________________________________________________________
L_FC (Dense)                     (None, 256)           131328                                       
____________________________________________________________________________________________________
R_FC (Dense)                     (None, 256)           131328                                       
____________________________________________________________________________________________________
L_output (Dense)                 (None, 3)             771                                          
____________________________________________________________________________________________________
R_output (Dense)                 (None, 3)             771                                          
====================================================================================================
Total params: 3,619,494.0
Trainable params: 3,619,494.0
Non-trainable params: 0.0

TIME      121 | MAX_SCORE   1
TIME     4364 | MAX_SCORE   2
TIME    11860 | MAX_SCORE   3
TIME    17249 | MAX_SCORE   4
TIME    17328 | MAX_SCORE   5
TIME    25467 | MAX_SCORE   6
…
