Layer (type)                     Output Shape          Param #     Connected to                     
====================================================================================================
main_input (InputLayer)          (None, 80, 80, 4)     0                                            
____________________________________________________________________________________________________
conv2d_1 (Conv2D)                (None, 20, 20, 32)    8224                                         
____________________________________________________________________________________________________
conv2d_2 (Conv2D)                (None, 10, 10, 64)    32832                                        
____________________________________________________________________________________________________
conv2d_3 (Conv2D)                (None, 10, 10, 64)    36928                                        
____________________________________________________________________________________________________
flatten_1 (Flatten)              (None, 6400)          0                                            
____________________________________________________________________________________________________
PostCNN_FC (Dense)               (None, 512)           3277312                                      
____________________________________________________________________________________________________
dropout_1 (Dropout)              (None, 512)           0                                            
____________________________________________________________________________________________________
L_FC (Dense)                     (None, 256)           131328                                       
____________________________________________________________________________________________________
R_FC (Dense)                     (None, 256)           131328                                       
____________________________________________________________________________________________________
L_output (Dense)                 (None, 3)             771                                          
____________________________________________________________________________________________________
R_output (Dense)                 (None, 3)             771                                          
====================================================================================================
Model Log 03-26_20-18-19
TIME     4698 | MAX_SCORE   1
TIME     5179 | MAX_SCORE   2
TIME    12651 | MAX_SCORE   3
TIME    16966 | MAX_SCORE   4
TIME    53184 | MAX_SCORE   5
TIME    73277 | MAX_SCORE   6
TIME   119393 | MAX_SCORE   7
TIME   119445 | MAX_SCORE   8
…
